…
51/51 [==============================] - ETA: 0s - loss: 0.3194 - acc: 0.879451/51 [==============================] - 245s 5s/step - loss: 0.3194 - acc: 0.8794 - val_loss: 1.0334 - val_acc: 0.7000
Epoch 00070: early stopping
Model: "sequential"
_________________________________________________________________
Layer (type)                 Output Shape              Param #   
=================================================================
conv2d (Conv2D)              (None, 100, 100, 100)     2800      
_________________________________________________________________
max_pooling2d (MaxPooling2D) (None, 50, 50, 100)       0         
_________________________________________________________________
conv2d_1 (Conv2D)            (None, 50, 50, 64)        57664     
_________________________________________________________________
conv2d_2 (Conv2D)            (None, 50, 50, 64)        36928     
_________________________________________________________________
max_pooling2d_1 (MaxPooling2 (None, 25, 25, 64)        0         
_________________________________________________________________
conv2d_3 (Conv2D)            (None, 25, 25, 128)       73856     
_________________________________________________________________
conv2d_4 (Conv2D)            (None, 25, 25, 128)       147584    
_________________________________________________________________
max_pooling2d_2 (MaxPooling2 (None, 12, 12, 128)       0         
_________________________________________________________________
conv2d_5 (Conv2D)            (None, 12, 12, 256)       295168    
_________________________________________________________________
conv2d_6 (Conv2D)            (None, 12, 12, 256)       590080    
_________________________________________________________________
max_pooling2d_3 (MaxPooling2 (None, 6, 6, 256)         0         
_________________________________________________________________
conv2d_7 (Conv2D)            (None, 6, 6, 512)         1180160   
_________________________________________________________________
conv2d_8 (Conv2D)            (None, 6, 6, 512)         2359808   
_________________________________________________________________
max_pooling2d_4 (MaxPooling2 (None, 3, 3, 512)         0         
_________________________________________________________________
conv2d_9 (Conv2D)            (None, 3, 3, 512)         2359808   
_________________________________________________________________
conv2d_10 (Conv2D)           (None, 3, 3, 512)         2359808   
_________________________________________________________________
max_pooling2d_5 (MaxPooling2 (None, 1, 1, 512)         0         
_________________________________________________________________
flatten (Flatten)            (None, 512)               0         
_________________________________________________________________
dense (Dense)                (None, 512)               262656    
_________________________________________________________________
dropout (Dropout)            (None, 512)               0         
_________________________________________________________________
dense_1 (Dense)              (None, 4)                 2052      
=================================================================
Total params: 9,728,372
Trainable params: 9,728,372
Non-trainable params: 0
_________________________________________________________________
Traceback (most recent call last):
  File "A:\Arima\PROJECTS\Outbox\Anitha Akka\Animals\VGG16\vgg16.py", line 100, in <module>
    pickle.dump(hist.history, f)
NameError: name 'hist' is not defined
…
